…
Validation Acc: 0.45999999999999996
1  is validated
Validationloss: 6.5587975025177006
Validation Acc: 0.58
2  is validated
Validationloss: 6.54945125579834
Validation Acc: 0.8
3  is validated
Validationloss: 6.510228300094605
Validation Acc: 0.86
4  is validated
Validationloss: 6.436931395530701
Validation Acc: 0.84
5  is validated
Validationloss: 6.463914179801941
Validation Acc: 1.18
encoder(
  (max_pool_2x2): MaxPool2d(kernel_size=(3, 2), stride=2, padding=0, dilation=1, ceil_mode=False)
  (RCNN1): RRCNN_block(
    (RCNN): Sequential(
      (0): Recurrent_block(
        (conv): Sequential(
          (0): Conv2d(64, 64, kernel_size=(3, 3), stride=(1, 1), padding=(1, 1))
          (1): BatchNorm2d(64, eps=1e-05, momentum=0.1, affine=True, track_running_stats=True)
          (2): ReLU(inplace=True)
        )
      )
      (1): Recurrent_block(
        (conv): Sequential(
          (0): Conv2d(64, 64, kernel_size=(3, 3), stride=(1, 1), padding=(1, 1))
          (1): BatchNorm2d(64, eps=1e-05, momentum=0.1, affine=True, track_running_stats=True)
          (2): ReLU(inplace=True)
        )
      )
    )
    (Conv_1x1): Conv2d(3, 64, kernel_size=(1, 1), stride=(1, 1))
  )
  (RCNN2): RRCNN_block(
    (RCNN): Sequential(
      (0): Recurrent_block(
        (conv): Sequential(
          (0): Conv2d(128, 128, kernel_size=(3, 3), stride=(1, 1), padding=(1, 1))
          (1): BatchNorm2d(128, eps=1e-05, momentum=0.1, affine=True, track_running_stats=True)
          (2): ReLU(inplace=True)
        )
      )
      (1): Recurrent_block(
        (conv): Sequential(
          (0): Conv2d(128, 128, kernel_size=(3, 3), stride=(1, 1), padding=(1, 1))
          (1): BatchNorm2d(128, eps=1e-05, momentum=0.1, affine=True, track_running_stats=True)
          (2): ReLU(inplace=True)
        )
      )
    )
    (Conv_1x1): Conv2d(64, 128, kernel_size=(1, 1), stride=(1, 1))
  )
  (RCNN3): RRCNN_block(
    (RCNN): Sequential(
      (0): Recurrent_block(
        (conv): Sequential(
          (0): Conv2d(256, 256, kernel_size=(3, 3), stride=(1, 1), padding=(1, 1))
          (1): BatchNorm2d(256, eps=1e-05, momentum=0.1, affine=True, track_running_stats=True)
          (2): ReLU(inplace=True)
        )
      )
      (1): Recurrent_block(
        (conv): Sequential(
          (0): Conv2d(256, 256, kernel_size=(3, 3), stride=(1, 1), padding=(1, 1))
          (1): BatchNorm2d(256, eps=1e-05, momentum=0.1, affine=True, track_running_stats=True)
          (2): ReLU(inplace=True)
        )
      )
    )
    (Conv_1x1): Conv2d(128, 256, kernel_size=(1, 1), stride=(1, 1))
  )
  (dropout): Dropout(p=0.3, inplace=False)
  (fc1): Linear(in_features=25, out_features=50, bias=True)
  (fc2): Linear(in_features=50, out_features=120, bias=True)
  (fc3): Linear(in_features=120, out_features=181, bias=True)
  (out): Conv2d(256, 1, kernel_size=(1, 1), stride=(1, 1))
)
